…
x + 1, xticks=[], yticks=[])     imshow(images[idx])     ax.set_title(get_class_name(int(labels[idx]))) In\u00a0[7]: Copied! <pre># Load a pre-trained MobileNetV3 and inspect its structure\nimport torchvision.models as models\n\nmobilenet_v3_model = models.mobilenet_v3_small(pretrained=True)\nprint(mobilenet_v3_model)\n</pre> # Load a pre-trained MobileNetV3 and inspect its structure import torchvision.models as models  mobilenet_v3_model = models.mobilenet_v3_small(pretrained=True) print(mobilenet_v3_model) <pre>MobileNetV3(\n  (features): Sequential(\n    (0): Conv2dNormActivation(\n      (0): Conv2d(3, 16, kernel_size=(3, 3), stride=(2, 2), padding=(1, 1), bias=False)\n      (1): BatchNorm2d(16, eps=0.001, momentum=0.01, affine=True, track_running_stats=True)\n      (2): Hardswish()\n    )\n    (1): InvertedResidual(\n      (block): Sequential(\n        (0): Conv2dNormActivation(\n          (0): Conv2d(16, 16, kernel_size=(3, 3), stride=(2, 2), padding=(1, 1), groups=16, bias=False)\n          (1): BatchNorm2d(16, eps=0.001, momentum=0.01, affine=True, track_running_stats=True)\n          (2): ReLU(inplace=True)\n        )\n        (1): SqueezeExcitation(\n          (avgpool): AdaptiveAvgPool2d(output_size=1)\n          (fc1): Conv2d(16, 8, kernel_size=(1, 1), stride=(1, 1))\n          (fc2): Conv2d(8, 16, kernel_size=(1, 1), stride=(1, 1))\n          (activation): ReLU()\n          (scale_activation): Hardsigmoid()\n        )\n        (2): Conv2dNormActivation(\n          (0): Conv2d(16, 16, kernel_size=(1, 1), stride=(1, 1), bias=False)\n          (1): BatchNorm2d(16, eps=0.001, momentum=0.01, affine=True, track_running_stats=True)\n        )\n      )\n    )\n    (2): InvertedResidual(\n      (block): Sequential(\n        (0): Conv2dNormActivation(\n          (0): Conv2d(16, 72, kernel_size=(1, 1), stride=(1, 1), bias=False)\n          (1): BatchNorm2d(72, eps=0.001, momentum=0.01, affine=True, track_running_stats=True)\n          (2): ReLU(inplace=True)\n        )\n        (1): Conv2dNormActivation(\n          (0): Conv2d(72, 72, kernel_size=(3, 3), stride=(2, 2), padding=(1, 1), groups=72, bias=False)\n          (1): BatchNorm2d(72, eps=0.001, momentum=0.01, affine=True, track_running_stats=True)\n          (2): ReLU(inplace=True)\n        )\n        (2): Conv2dNormActivation(\n          (0): Conv2d(72, 24, kernel_size=(1, 1), stride=(1, 1), bias=False)\n          (1): BatchNorm2d(24, eps=0.001, momentum=0.01, affine=True, track_running_stats=True)\n        )\n      )\n    )\n    (3): InvertedResidual(\n      (block): Sequential(\n        (0): Conv2dNormActivation(\n          (0): Conv2d(24, 88, kernel_size=(1, 1), stride=(1, 1), bias=False)\n          (1): BatchNorm2d(88, eps=0.001, momentum=0.01, affine=True, track_running_stats=True)\n          (2): ReLU(inplace=True)\n        )\n        (1): Conv2dNormActivation(\n          (0): Conv2d(88, 88, kernel_size=(3, 3), stride=(1, 1), padding=(1, 1), groups=88, bias=False)\n          (1): BatchNorm2d(88, eps=0.001, momentum=0.01, affine=True, track_running_stats=True)\n          (2): ReLU(inplace=True)\n        )\n        (2): Conv2dNormActivation(\n          (0): Conv2d(88, 24, kernel_size=(1, 1), stride=(1, 1), bias=False)\n          (1): BatchNorm2d(24, eps=0.001, momentum=0.01, affine=True, track_running_stats=True)\n        )\n      )\n    )\n    (4): InvertedResidual(\n      (block): Sequential(\n        (0): Conv2dNormActivation(\n          (0): Conv2d(24, 96, kernel_size=(1, 1), stride=(1, 1), bias=False)\n          (1): BatchNorm2d(96, eps=0.001, momentum=0.01, affine=True, track_running_stats=True)\n          (2): Hardswish()\n        )\n        (1): Conv2dNormActivation(\n          (0): Conv2d(96, 96, kernel_size=(5, 5), stride=(2, 2), padding=(2, 2), groups=96, bias=False)\n          (1): BatchNorm2d(96, eps=0.001, momentum=0.01, affine=True, track_running_stats=True)\n          (2): Hardswish()\n        )\n        (2): SqueezeExcitation(\n          (avgpool): AdaptiveAvgPool2d(output_size=1)\n          (fc1): Conv2d(96, 24, kernel_size=(1, 1), stride=(1, 1))\n          (fc2): Conv2d(24, 96, kernel_size=(1, 1), stride=(1, 1))\n          (activation): ReLU()\n          (scale_activation): Hardsigmoid()\n        )\n        (3): Conv2dNormActivation(\n          (0): Conv2d(96, 40, kernel_size=(1, 1), stride=(1, 1), bias=False)\n          (1): BatchNorm2d(40, eps=0.001, momentum=0.01, affine=True, track_running_stats=True)\n        )\n      )\n    )\n    (5): InvertedResidual(\n      (block): Sequential(\n        (0): Conv2dNormActivation(\n          (0): Conv2d(40, 240, kernel_size=(1, 1), stride=(1, 1), bias=False)\n          (1): BatchNorm2d(240, eps=0.001, momentum=0.01, affine=True, track_running_stats=True)\n          (2): Hardswish()\n        )\n        (1): Conv2dNormActivation(\n          (0): Conv2d(240, 240, kernel_size=(5, 5), stride=(1, 1), padding=(2, 2), groups=240, bias=False)\n          (1): BatchNorm2d(240, eps=0.001, momentum=0.01, affine=True, track_running_stats=True)\n          (2): Hardswish()\n        )\n        (2): SqueezeExcitation(\n          (avgpool): AdaptiveAvgPool2d(output_size=1)\n          (fc1): Conv2d(240, 64, kernel_size=(1, 1), stride=(1, 1))\n          (fc2): Conv2d(64, 240, kernel_size=(1, 1), stride=(1, 1))\n          (activation): ReLU()\n          (scale_activation): Hardsigmoid()\n        )\n        (3): Conv2dNormActivation(\n          (0): Conv2d(240, 40, kernel_size=(1, 1), stride=(1, 1), bias=False)\n          (1): BatchNorm2d(40, eps=0.001, momentum=0.01, affine=True, track_running_stats=True)\n        )\n      )\n    )\n    (6): InvertedResidual(\n      (block): Sequential(\n        (0): Conv2dNormActivation(\n          (0): Conv2d(40, 240, kernel_size=(1, 1), stride=(1, 1), bias=False)\n          (1): BatchNorm2d(240, eps=0.001, momentum=0.01, affine=True, track_running_stats=True)\n          (2): Hardswish()\n        )\n        (1): Conv2dNormActivation(\n          (0): Conv2d(240, 240, kernel_size=(5, 5), stride=(1, 1), padding=(2, 2), groups=240, bias=False)\n          (1): BatchNorm2d(240, eps=0.001, momentum=0.01, affine=True, track_running_stats=True)\n          (2): Hardswish()\n        )\n        (2): SqueezeExcitation(\n          (avgpool): AdaptiveAvgPool2d(output_size=1)\n          (fc1): Conv2d(240, 64, kernel_size=(1, 1), stride=(1, 1))\n          (fc2): Conv2d(64, 240, kernel_size=(1, 1), stride=(1, 1))\n          (activation): ReLU()\n          (scale_activation): Hardsigmoid()\n        )\n        (3): Conv2dNormActivation(\n          (0): Conv2d(240, 40, kernel_size=(1, 1), stride=(1, 1), bias=False)\n          (1): BatchNorm2d(40, eps=0.001, momentum=0.01, affine=True, track_running_stats=True)\n        )\n      )\n    )\n    (7): InvertedResidual(\n      (block): Sequential(\n        (0): Conv2dNormActivation(\n          (0): Conv2d(40, 120, kernel_size=(1, 1), stride=(1, 1), bias=False)\n          (1): BatchNorm2d(120, eps=0.001, momentum=0.01, affine=True, track_running_stats=True)\n          (2): Hardswish()\n        )\n        (1): Conv2dNormActivation(\n          (0): Conv2d(120, 120, kernel_size=(5, 5), stride=(1, 1), padding=(2, 2), groups=120, bias=False)\n          (1): BatchNorm2d(120, eps=0.001, momentum=0.01, affine=True, track_running_stats=True)\n          (2): Hardswish()\n        )\n        (2): SqueezeExcitation(\n          (avgpool): AdaptiveAvgPool2d(output_size=1)\n          (fc1): Conv2d(120, 32, kernel_size=(1, 1), stride=(1, 1))\n          (fc2): Conv2d(32, 120, kernel_size=(1, 1), stride=(1, 1))\n          (activation): ReLU()\n          (scale_activation): Hardsigmoid()\n        )\n        (3): Conv2dNormActivation(\n          (0): Conv2d(120, 48, kernel_size=(1, 1), stride=(1, 1), bias=False)\n          (1): BatchNorm2d(48, eps=0.001, momentum=0.01, affine=True, track_running_stats=True)\n        )\n      )\n    )\n    (8): InvertedResidual(\n      (block): Sequential(\n        (0): Conv2dNormActivation(\n          (0): Conv2d(48, 144, kernel_size=(1, 1), stride=(1, 1), bias=False)\n          (1): BatchNorm2d(144, eps=0.001, momentum=0.01, affine=True, track_running_stats=True)\n          (2): Hardswish()\n        )\n        (1): Conv2dNormActivation(\n          (0): Conv2d(144, 144, kernel_size=(5, 5), stride=(1, 1), padding=(2, 2), groups=144, bias=False)\n          (1): BatchNorm2d(144, eps=0.001, momentum=0.01, affine=True, track_running_stats=True)\n          (2): Hardswish()\n        )\n        (2): SqueezeExcitation(\n          (avgpool): AdaptiveAvgPool2d(output_size=1)\n          (fc1): Conv2d(144, 40, kernel_size=(1, 1), stride=(1, 1))\n          (fc2): Conv2d(40, 144, kernel_size=(1, 1), stride=(1, 1))\n          (activation): ReLU()\n          (scale_activation): Hardsigmoid()\n        )\n        (3): Conv2dNormActivation(\n          (0): Conv2d(144, 48, kernel_size=(1, 1), stride=(1, 1), bias=False)\n          (1): BatchNorm2d(48, eps=0.001, momentum=0.01, affine=True, track_running_stats=True)\n        )\n      )\n    )\n    (9): InvertedResidual(\n      (block): Sequential(\n        (0): Conv2dNormActivation(\n          (0): Conv2d(48, 288, kernel_size=(1, 1), stride=(1, 1), bias=False)\n          (1): BatchNorm2d(288, eps=0.001, momentum=0.01, affine=True, track_running_stats=True)\n          (2): Hardswish()\n        )\n        (1): Conv2dNormActivation(\n          (0): Conv2d(288, 288, kernel_size=(5, 5), stride=(2, 2), padding=(2, 2), groups=288, bias=False)\n          (1): BatchNorm2d(288, eps=0.001, momentum=0.01, affine=True, track_running_stats=True)\n          (2): Hardswish()\n        )\n        (2): SqueezeExcitation(\n          (avgpool): AdaptiveAvgPool2d(output_size=1)\n          (fc1): Conv2d(288, 72, kernel_size=(1, 1), stride=(1, 1))\n          (fc2): Conv2d(72, 288, kernel_size=(1, 1), stride=(1, 1))\n          (activation): ReLU()\n          (scale_activation): Hardsigmoid()\n        )\n        (3): Conv2dNormActivation(\n          (0): Conv2d(288, 96, kernel_size=(1, 1), stride=(1, 1), bias=False)\n          (1): BatchNorm2d(96, eps=0.001, momentum=0.01, affine=True, track_running_stats=True)\n        )\n      )\n    )\n    (10): InvertedResidual(\n      (block): Sequential(\n        (0): Conv2dNormActivation(\n          (0): Conv2d(96, 576, kernel_size=(1, 1), stride=(1, 1), bias=False)\n          (1): BatchNorm2d(576, eps=0.001, momentum=0.01, affine=True, track_running_stats=True)\n          (2): Hardswish()\n        )\n        (1): Conv2dNormActivation(\n          (0): Conv2d(576, 576, kernel_size=(5, 5), stride=(1, 1), padding=(2, 2), groups=576, bias=False)\n          (1): BatchNorm2d(576, eps=0.001, momentum=0.01, affine=True, track_running_stats=True)\n          (2): Hardswish()\n        )\n        (2): SqueezeExcitation(\n          (avgpool): AdaptiveAvgPool2d(output_size=1)\n          (fc1): Conv2d(576, 144, kernel_size=(1, 1), stride=(1, 1))\n          (fc2): Conv2d(144, 576, kernel_size=(1, 1), stride=(1, 1))\n          (activation): ReLU()\n          (scale_activation): Hardsigmoid()\n        )\n        (3): Conv2dNormActivation(\n          (0): Conv2d(576, 96, kernel_size=(1, 1), stride=(1, 1), bias=False)\n          (1): BatchNorm2d(96, eps=0.001, momentum=0.01, affine=True, track_running_stats=True)\n        )\n      )\n    )\n    (11): InvertedResidual(\n      (block): Sequential(\n        (0): Conv2dNormActivation(\n          (0): Conv2d(96, 576, kernel_size=(1, 1), stride=(1, 1), bias=False)\n          (1): BatchNorm2d(576, eps=0.001, momentum=0.01, affine=True, track_running_stats=True)\n          (2): Hardswish()\n        )\n        (1): Conv2dNormActivation(\n          (0): Conv2d(576, 576, kernel_size=(5, 5), stride=(1, 1), padding=(2, 2), groups=576, bias=False)\n          (1): BatchNorm2d(576, eps=0.001, momentum=0.01, affine=True, track_running_stats=True)\n          (2): Hardswish()\n        )\n        (2): SqueezeExcitation(\n          (avgpool): AdaptiveAvgPool2d(output_size=1)\n          (fc1): Conv2d(576, 144, kernel_size=(1, 1), stride=(1, 1))\n          (fc2): Conv2d(144, 576, kernel_size=(1, 1), stride=(1, 1))\n          (activation): ReLU()\n          (scale_activation): Hardsigmoid()\n        )\n        (3): Conv2dNormActivation(\n          (0): Conv2d(576, 96, kernel_size=(1, 1), stride=(1, 1), bias=False)\n          (1): BatchNorm2d(96, eps=0.001, momentum=0.01, affine=True, track_running_stats=True)\n        )\n      )\n    )\n    (12): Conv2dNormActivation(\n      (0): Conv2d(96, 576, kernel_size=(1, 1), stride=(1, 1), bias=False)\n      (1): BatchNorm2d(576, eps=0.001, momentum=0.01, affine=True, track_running_stats=True)\n      (2): Hardswish()\n    )\n  )\n  (avgpool): AdaptiveAvgPool2d(output_size=1)\n  (classifier): Sequential(\n    (0): Linear(in_features=576, out_features=1024, bias=True)\n    (1): Hardswish()\n    (2): Dropout(p=0.2, inplace=True)\n    (3): Linear(in_features=1024, out_features=1000, bias=True)\n  )\n)\n</pre> <pre>/Users/diegofernandezgil/projects/personal-page/.venv/lib/python3.11/site-packages/torchvision/models/_utils.py:208: UserWarning: The parameter 'pretrained' is deprecated since 0.13 and may be removed in the future, please use 'weights' instead.\n  warnings.warn(\n/Users/diegofernandezgil/projects/personal-page/.venv/lib/python3.
…
ly-connected layer         for param in self.model.parameters():             param.requires_grad = False          # Unfreeze the final layer         for param in self.model.classifier[3].parameters():             param.requires_grad = True      def unfreeze(self):         # Unfreeze all the weights of the network         for param in self.model.parameters():             param.requires_grad = True   # Create an instance of the MobileNetV3 model model = MobileNetV3() print(model) <pre>MobileNetV3(\n  (model): MobileNetV3(\n    (features): Sequential(\n      (0): Conv2dNormActivation(\n        (0): Conv2d(3, 16, kernel_size=(3, 3), stride=(2, 2), padding=(1, 1), bias=False)\n        (1): BatchNorm2d(16, eps=0.001, momentum=0.01, affine=True, track_running_stats=True)\n        (2): Hardswish()\n      )\n      (1): InvertedResidual(\n        (block): Sequential(\n          (0): Conv2dNormActivation(\n            (0): Conv2d(16, 16, kernel_size=(3, 3), stride=(2, 2), padding=(1, 1), groups=16, bias=False)\n            (1): BatchNorm2d(16, eps=0.001, momentum=0.01, affine=True, track_running_stats=True)\n            (2): ReLU(inplace=True)\n          )\n          (1): SqueezeExcitation(\n            (avgpool): AdaptiveAvgPool2d(output_size=1)\n            (fc1): Conv2d(16, 8, kernel_size=(1, 1), stride=(1, 1))\n            (fc2): Conv2d(8, 16, kernel_size=(1, 1), stride=(1, 1))\n            (activation): ReLU()\n            (scale_activation): Hardsigmoid()\n          )\n          (2): Conv2dNormActivation(\n            (0): Conv2d(16, 16, kernel_size=(1, 1), stride=(1, 1), bias=False)\n            (1): BatchNorm2d(16, eps=0.001, momentum=0.01, affine=True, track_running_stats=True)\n          )\n        )\n      )\n      (2): InvertedResidual(\n        (block): Sequential(\n          (0): Conv2dNormActivation(\n            (0): Conv2d(16, 72, kernel_size=(1, 1), stride=(1, 1), bias=False)\n            (1): BatchNorm2d(72, eps=0.001, momentum=0.01, affine=True, track_running_stats=True)\n            (2): ReLU(inplace=True)\n          )\n          (1): Conv2dNormActivation(\n            (0): Conv2d(72, 72, kernel_size=(3, 3), stride=(2, 2), padding=(1, 1), groups=72, bias=False)\n            (1): BatchNorm2d(72, eps=0.001, momentum=0.01, affine=True, track_running_stats=True)\n            (2): ReLU(inplace=True)\n          )\n          (2): Conv2dNormActivation(\n            (0): Conv2d(72, 24, kernel_size=(1, 1), stride=(1, 1), bias=False)\n            (1): BatchNorm2d(24, eps=0.001, momentum=0.01, affine=True, track_running_stats=True)\n          )\n        )\n      )\n      (3): InvertedResidual(\n        (block): Sequential(\n          (0): Conv2dNormActivation(\n            (0): Conv2d(24, 88, kernel_size=(1, 1), stride=(1, 1), bias=False)\n            (1): BatchNorm2d(88, eps=0.001, momentum=0.01, affine=True, track_running_stats=True)\n            (2): ReLU(inplace=True)\n          )\n          (1): Conv2dNormActivation(\n            (0): Conv2d(88, 88, kernel_size=(3, 3), stride=(1, 1), padding=(1, 1), groups=88, bias=False)\n            (1): BatchNorm2d(88, eps=0.001, momentum=0.01, affine=True, track_running_stats=True)\n            (2): ReLU(inplace=True)\n          )\n          (2): Conv2dNormActivation(\n            (0): Conv2d(88, 24, kernel_size=(1, 1), stride=(1, 1), bias=False)\n            (1): BatchNorm2d(24, eps=0.001, momentum=0.01, affine=True, track_running_stats=True)\n          )\n        )\n      )\n      (4): InvertedResidual(\n        (block): Sequential(\n          (0): Conv2dNormActivation(\n            (0): Conv2d(24, 96, kernel_size=(1, 1), stride=(1, 1), bias=False)\n            (1): BatchNorm2d(96, eps=0.001, momentum=0.01, affine=True, track_running_stats=True)\n            (2): Hardswish()\n          )\n          (1): Conv2dNormActivation(\n            (0): Conv2d(96, 96, kernel_size=(5, 5), stride=(2, 2), padding=(2, 2), groups=96, bias=False)\n            (1): BatchNorm2d(96, eps=0.001, momentum=0.01, affine=True, track_running_stats=True)\n            (2): Hardswish()\n          )\n          (2): SqueezeExcitation(\n            (avgpool): AdaptiveAvgPool2d(output_size=1)\n            (fc1): Conv2d(96, 24, kernel_size=(1, 1), stride=(1, 1))\n            (fc2): Conv2d(24, 96, kernel_size=(1, 1), stride=(1, 1))\n            (activation): ReLU()\n            (scale_activation): Hardsigmoid()\n          )\n          (3): Conv2dNormActivation(\n            (0): Conv2d(96, 40, kernel_size=(1, 1), stride=(1, 1), bias=False)\n            (1): BatchNorm2d(40, eps=0.001, momentum=0.01, affine=True, track_running_stats=True)\n          )\n        )\n      )\n      (5): InvertedResidual(\n        (block): Sequential(\n          (0): Conv2dNormActivation(\n            (0): Conv2d(40, 240, kernel_size=(1, 1), stride=(1, 1), bias=False)\n            (1): BatchNorm2d(240, eps=0.001, momentum=0.01, affine=True, track_running_stats=True)\n            (2): Hardswish()\n          )\n          (1): Conv2dNormActivation(\n            (0): Conv2d(240, 240, kernel_size=(5, 5), stride=(1, 1), padding=(2, 2), groups=240, bias=False)\n            (1): BatchNorm2d(240, eps=0.001, momentum=0.01, affine=True, track_running_stats=True)\n            (2): Hardswish()\n          )\n          (2): SqueezeExcitation(\n            (avgpool): AdaptiveAvgPool2d(output_size=1)\n            (fc1): Conv2d(240, 64, kernel_size=(1, 1), stride=(1, 1))\n            (fc2): Conv2d(64, 240, kernel_size=(1, 1), stride=(1, 1))\n            (activation): ReLU()\n            (scale_activation): Hardsigmoid()\n          )\n          (3): Conv2dNormActivation(\n            (0): Conv2d(240, 40, kernel_size=(1, 1), stride=(1, 1), bias=False)\n            (1): BatchNorm2d(40, eps=0.001, momentum=0.01, affine=True, track_running_stats=True)\n          )\n        )\n      )\n      (6): InvertedResidual(\n        (block): Sequential(\n          (0): Conv2dNormActivation(\n            (0): Conv2d(40, 240, kernel_size=(1, 1), stride=(1, 1), bias=False)\n            (1): BatchNorm2d(240, eps=0.001, momentum=0.01, affine=True, track_running_stats=True)\n            (2): Hardswish()\n          )\n          (1): Conv2dNormActivation(\n            (0): Conv2d(240, 240, kernel_size=(5, 5), stride=(1, 1), padding=(2, 2), groups=240, bias=False)\n            (1): BatchNorm2d(240, eps=0.001, momentum=0.01, affine=True, track_running_stats=True)\n            (2): Hardswish()\n          )\n          (2): SqueezeExcitation(\n            (avgpool): AdaptiveAvgPool2d(output_size=1)\n            (fc1): Conv2d(240, 64, kernel_size=(1, 1), stride=(1, 1))\n            (fc2): Conv2d(64, 240, kernel_size=(1, 1), stride=(1, 1))\n            (activation): ReLU()\n            (scale_activation): Hardsigmoid()\n          )\n          (3): Conv2dNormActivation(\n            (0): Conv2d(240, 40, kernel_size=(1, 1), stride=(1, 1), bias=False)\n            (1): BatchNorm2d(40, eps=0.001, momentum=0.01, affine=True, track_running_stats=True)\n          )\n        )\n      )\n      (7): InvertedResidual(\n        (block): Sequential(\n          (0): Conv2dNormActivation(\n            (0): Conv2d(40, 120, kernel_size=(1, 1), stride=(1, 1), bias=False)\n            (1): BatchNorm2d(120, eps=0.001, momentum=0.01, affine=True, track_running_stats=True)\n            (2): Hardswish()\n          )\n          (1): Conv2dNormActivation(\n            (0): Conv2d(120, 120, kernel_size=(5, 5), stride=(1, 1), padding=(2, 2), groups=120, bias=False)\n            (1): BatchNorm2d(120, eps=0.001, momentum=0.01, affine=True, track_running_stats=True)\n            (2): Hardswish()\n          )\n          (2): SqueezeExcitation(\n            (avgpool): AdaptiveAvgPool2d(output_size=1)\n            (fc1): Conv2d(120, 32, kernel_size=(1, 1), stride=(1, 1))\n            (fc2): Conv2d(32, 120, kernel_size=(1, 1), stride=(1, 1))\n            (activation): ReLU()\n            (scale_activation): Hardsigmoid()\n          )\n          (3): Conv2dNormActivation(\n            (0): Conv2d(120, 48, kernel_size=(1, 1), stride=(1, 1), bias=False)\n            (1): BatchNorm2d(48, eps=0.001, momentum=0.01, affine=True, track_running_stats=True)\n          )\n        )\n      )\n      (8): InvertedResidual(\n        (block): Sequential(\n          (0): Conv2dNormActivation(\n            (0): Conv2d(48, 144, kernel_size=(1, 1), stride=(1, 1), bias=False)\n            (1): BatchNorm2d(144, eps=0.001, momentum=0.01, affine=True, track_running_stats=True)\n            (2): Hardswish()\n          )\n          (1): Conv2dNormActivation(\n            (0): Conv2d(144, 144, kernel_size=(5, 5), stride=(1, 1), padding=(2, 2), groups=144, bias=False)\n            (1): BatchNorm2d(144, eps=0.001, momentum=0.01, affine=True, track_running_stats=True)\n            (2): Hardswish()\n          )\n          (2): SqueezeExcitation(\n            (avgpool): AdaptiveAvgPool2d(output_size=1)\n            (fc1): Conv2d(144, 40, kernel_size=(1, 1), stride=(1, 1))\n            (fc2): Conv2d(40, 144, kernel_size=(1, 1), stride=(1, 1))\n            (activation): ReLU()\n            (scale_activation): Hardsigmoid()\n          )\n          (3): Conv2dNormActivation(\n            (0): Conv2d(144, 48, kernel_size=(1, 1), stride=(1, 1), bias=False)\n            (1): BatchNorm2d(48, eps=0.001, momentum=0.01, affine=True, track_running_stats=True)\n          )\n        )\n      )\n      (9): InvertedResidual(\n        (block): Sequential(\n          (0): Conv2dNormActivation(\n            (0): Conv2d(48, 288, kernel_size=(1, 1), stride=(1, 1), bias=False)\n            (1): BatchNorm2d(288, eps=0.001, momentum=0.01, affine=True, track_running_stats=True)\n            (2): Hardswish()\n          )\n          (1): Conv2dNormActivation(\n            (0): Conv2d(288, 288, kernel_size=(5, 5), stride=(2, 2), padding=(2, 2), groups=288, bias=False)\n            (1): BatchNorm2d(288, eps=0.001, momentum=0.01, affine=True, track_running_stats=True)\n            (2): Hardswish()\n          )\n          (2): SqueezeExcitation(\n            (avgpool): AdaptiveAvgPool2d(output_size=1)\n            (fc1): Conv2d(288, 72, kernel_size=(1, 1), stride=(1, 1))\n            (fc2): Conv2d(72, 288, kernel_size=(1, 1), stride=(1, 1))\n            (activation): ReLU()\n            (scale_activation): Hardsigmoid()\n          )\n          (3): Conv2dNormActivation(\n            (0): Conv2d(288, 96, kernel_size=(1, 1), stride=(1, 1), bias=False)\n            (1): BatchNorm2d(96, eps=0.001, momentum=0.01, affine=True, track_running_stats=True)\n          )\n        )\n      )\n      (10): InvertedResidual(\n        (block): Sequential(\n          (0): Conv2dNormActivation(\n            (0): Conv2d(96, 576, kernel_size=(1, 1), stride=(1, 1), bias=False)\n            (1): BatchNorm2d(576, eps=0.001, momentum=0.01, affine=True, track_running_stats=True)\n            (2): Hardswish()\n          )\n          (1): Conv2dNormActivation(\n            (0): Conv2d(576, 576, kernel_size=(5, 5), stride=(1, 1), padding=(2, 2), groups=576, bias=False)\n            (1): BatchNorm2d(576, eps=0.001, momentum=0.01, affine=True, track_running_stats=True)\n            (2): Hardswish()\n          )\n          (2): SqueezeExcitation(\n            (avgpool): AdaptiveAvgPool2d(output_size=1)\n            (fc1): Conv2d(576, 144, kernel_size=(1, 1), stride=(1, 1))\n            (fc2): Conv2d(144, 576, kernel_size=(1, 1), stride=(1, 1))\n            (activation): ReLU()\n            (scale_activation): Hardsigmoid()\n          )\n          (3): Conv2dNormActivation(\n            (0): Conv2d(576, 96, kernel_size=(1, 1), stride=(1, 1), bias=False)\n            (1): BatchNorm2d(96, eps=0.001, momentum=0.01, affine=True, track_running_stats=True)\n          )\n        )\n      )\n      (11): InvertedResidual(\n        (block): Sequential(\n          (0): Conv2dNormActivation(\n            (0): Conv2d(96, 576, kernel_size=(1, 1), stride=(1, 1), bias=False)\n            (1): BatchNorm2d(576, eps=0.001, momentum=0.01, affine=True, track_running_stats=True)\n            (2): Hardswish()\n          )\n          (1): Conv2dNormActivation(\n            (0): Conv2d(576, 576, kernel_size=(5, 5), stride=(1, 1), padding=(2, 2), groups=576, bias=False)\n            (1): BatchNorm2d(576, eps=0.001, momentum=0.01, affine=True, track_running_stats=True)\n            (2): Hardswish()\n          )\n          (2): SqueezeExcitation(\n            (avgpool): AdaptiveAvgPool2d(output_size=1)\n            (fc1): Conv2d(576, 144, kernel_size=(1, 1), stride=(1, 1))\n            (fc2): Conv2d(144, 576, kernel_size=(1, 1), stride=(1, 1))\n            (activation): ReLU()\n            (scale_activation): Hardsigmoid()\n          )\n          (3): Conv2dNormActivation(\n            (0): Conv2d(576, 96, kernel_size=(1, 1), stride=(1, 1), bias=False)\n            (1): BatchNorm2d(96, eps=0.001, momentum=0.01, affine=True, track_running_stats=True)\n          )\n        )\n      )\n      (12): Conv2dNormActivation(\n        (0): Conv2d(96, 576, kernel_size=(1, 1), stride=(1, 1), bias=False)\n        (1): BatchNorm2d(576, eps=0.001, momentum=0.01, affine=True, track_running_stats=True)\n        (2): Hardswish()\n      )\n    )\n    (avgpool): AdaptiveAvgPool2d(output_size=1)\n    (classifier): Sequential(\n      (0): Linear(in_features=576, out_features=1024, bias=True)\n      (1): Hardswish()\n      (2): Dropout(p=0.2, inplace=True)\n      (3): Linear(in_features=1024, out_features=10, bias=True)\n    )\n  )\n)\n</pre> <pre>/Users/diegofernandezgil/projects/personal-page/.venv/lib/python3.11/site-packages/torchvision/models/_utils.py:208: UserWarning: The parameter 'pretrained' is deprecated since 0.13 and may be removed in the future, please use 'weights' instead.\n  warnings.warn(\n/Users/diegofernandezgil/projects/personal-page/.venv/lib/pyt
…
